model.pt (torch, 113355 bytes, 50 tensors)

conv1.weight f4 [8, 2, 5, 5]
0.1967174 0.11150608 -0.057446998 -0.16335617 0.1196445 -0.0073452387 -0.4323232 0.25680992
-0.15960525 0.08415731 -0.09947321 0.107424274 -0.27943224 -0.077381685 -0.39712435 0.28268605
0.21614945 0.41185287 -0.26272035 -0.049606588 0.208264 0.35684434 0.08546898 0.2620957
-0.16001582 -0.39435628 0.39730188 -0.21495652 -0.08209917 -0.26363477 -0.10008345 0.22219451
0.19559498 0.073629245 -0.13429919 -0.4320846 0.0795667 -0.19898875 0.25623968 -0.12989433
-0.016635757 0.1473532 0.39034414 0.070448644 0.30565405 0.056614764 -0.038242172 0.16068469
-0.11462655 0.26313293 -0.07429367 0.041267857 -0.4330737 0.58257186 0.12877306 0.04624765
-0.06795712 -0.19687492 0.15156198 -0.07531413 -0.049705293 0.17791975 0.24235468 0.07478578
0.27023348 -0.0554459 -0.0526477 -0.34400225 0.35997593 -0.1859416 0.007618004 -0.1474413
-0.22977974 -0.005827963 0.13758816 0.39364636 -0.31548494 0.35344076 -0.045980576 -0.063128784
-0.016232435 -0.21085961 -0.2104806 0.070294224 0.087209105 0.08958139 -0.30387843 -0.35250536
0.2981772 -0.15428676 -0.24174558 0.00938188 -0.20225874 0.3573123 0.13999137 -0.07290056
-0.16948906 0.020977331 0.10622256 0.019780383 -0.26879403 0.37968987 -0.118508294 -0.25141922
0.086370975 -0.15590899 0.12593597 0.33314854 -0.15824196 0.122693814 -0.30683038 0.019633615
0.16949096 0.21654564 0.4855813 0.03138515 -0.2939784 -0.15218745 -0.03263523 0.09303201
-0.0039347764 0.27479076 -0.1692998 -0.121931545 -0.14831197 0.57168347 -0.047018513 0.09583764
-0.16829105 0.011304451 0.18997608 0.018586876 0.055052638 -0.1002838 0.12080018 -0.11302315
0.0026380823 0.17034173 -0.017242745 -0.062132668 -0.3293907 -0.097625434 -0.33250806 -0.061816197
-0.23593548 -0.5741207 -0.06706407 -0.33196488 -0.3143937 -0.11232436 0.25913954 0.28183103
0.16324125 0.25392845 0.23857607 0.025113268 0.2310288 -0.0094628595 0.1730309 0.15187138
-0.21733496 0.25967154 -0.010274764 0.089152835 0.009486913 0.16988067 0.0057617608 -0.1740001
-0.22654389 -0.34977996 -0.21947128 -0.30942306 -0.11333543 -0.001541864 0.05232805 0.18805602
0.2268866 -0.23462616 0.09294597 0.18369548 0.046381142 -0.0494368 -0.14350872 -0.03561434
0.2066475 -0.06870478 0.25794485 -0.26899135 -0.059992976 -0.102447405 -0.07732163 -0.06926596
-0.10168222 0.06372056 -0.1500817 -0.31575304 0.37152573 -0.2755547 0.08306252 0.19249193
-0.08631427 -0.27733785 0.30184376 -0.017695952 -0.086856425 -0.11345201 0.20378621 -0.24322508
-0.36445075 -0.18529902 0.18525398 0.110330366 0.5711392 -0.03237996 0.19831218 -0.17680134
0.08453533 0.013912393 0.17909192 0.19339894 -0.057916176 -0.033288162 -0.20913018 0.016028382
0.032124225 0.042606518 -0.050845023 0.31628102 -0.13384214 -0.0032203386 -0.17698906 -0.16121274
0.02120243 0.12996247 -0.21093938 -0.0025191044 0.051712196 0.6495836 0.019008365 0.25807196
-0.19838862 0.27788743 -0.27913576 -0.26772234 0.23618492 -0.12729074 -0.22596681 -0.38850668
-0.01526259 0.35704985 -0.103882335 0.031007761 0.36766493 -0.10628069 0.43227103 0.2697167
00000000: 4970 493e 4d5d e43d 8b4d 6bbd d746 27be
00000010: 2d08 f53d 54b0 f0bb 7759 ddbe 977c 833e
00000020: 8f6f 23be ab5a ac3d 9cb8 cbbd 4201 dc3d
00000030: be11 8fbe 4a7a 9ebd e253 cbbe 3abc 903e
00000040: 4856 5d3e 61de d23e 4883 86be 4730 4bbd
00000050: 2843 553e 4db4 b63e 5c0a af3d 6831 863e
00000060: 30db 23be 11e9 c9be 276b cb3e 901d 5cbe
00000070: 9c23 a8bd 23fb 86be 8df8 ccbd f586 633e
00000080: 0d4a 483e eeca 963d ba85 09be 313a ddbe
00000090: def3 a23d b5c3 4bbe d931 833e 0503 05be
000000a0: b647 88bc c2e3 163e 30db c73e 6147 903d
000000b0: b07e 9c3e e2e4 673d d3a3 1cbd 878a 243e
000000c0: 53c1 eabd 5cb9 863e 4827 98bd 7c08 293d
000000d0: d6bb ddbe 6e23 153f 16dd 033e 2d6e 3d3d
000000e0: 1a2d 8bbd 9499 49be 1033 1b3e 4b3e 9abd
000000f0: c797 4bbd 9830 363e d32b 783e 4929 993d
00000100: 0b5c 8a3e 3d1b 63bd 1da5 57bd 1021 b0be
00000110: c44e b83e 7a67 3ebe 73a0 f93b dafa 16be
00000120: 614b 6bbe 7ff8 bebb e9e3 0c3e 048c c93e
00000130: 3e87 a1be 30f6 b43e 2156 3cbd aa49 81bd
00000140: e2f9 84bc 95eb 57be 3a88 57be 6bf6 8f3d
00000150: b09a b23d 7376 b73d f495 9bbe 957b b4be
00000160: afaa 983e 59fd 1dbe 278c 77be 75b6 193c
00000170: ea1c 4fbe a3f1 b63e e659 0f3e e44c 95bd
00000180: 8a8e 2dbe a7d8 ab3c 378b d93d 780a a23c
00000190: 5f9f 89be b666 c23e 7ab4 f2bd 05ba 80be
000001a0: 44e3 b03d 9ba6 1fbe 5cf5 003e 7292 aa3e
000001b0: 2e0a 22be e546 fb3d df18 9dbe add6 a03c
000001c0: 0a8f 2d3e 24be 5d3e 1d9e f83e b78d 003d
000001d0: 5684 96be 07d7 1bbe 85ac 05bd 9187 be3d
000001e0: 4cef 80bb 60b1 8c3e ed5c 2dbe 3fb7 f9bd
000001f0: 18df 17be d959 123f 7c96 40bd 8646 c43d
00000200: 7d54 2cbe 4e36 393c 1789 423e 8143 983c
00000210: e07e 613d 9861 cdbd 1666 f73d ae78 e7bd
00000220: ade3 2c3b 106e 2e3e a840 8dbc d37e 7ebd
00000230: e6a5 a8be d8ef c7bd 7f3e aabe fb32 7dbd
00000240: 1299 71be 93f9 12bf e358 89bd 4df7 a9be
00000250: 36f8 a0be 500a e6bd f0ad 843e 284c 903e
00000260: b728 273e e902 823e 494d 743e 57ba cd3c
00000270: d092 6c3e 1c0a 1bbc 032f 313e 2c84 1b3e
00000280: 0e8d 5ebe abf3 843e 7c57 28bc c395 b63d
00000290: ff6e 1b3c 33f5 2d3e 27cd bc3b 152d 32be
000002a0: 1ffb 67be 5c16 b3be 14bd 60be b36c 9ebe
000002b0: 681c e8bd 5f18 caba f055 563d c291 403e
000002c0: f654 683e d741 70be 755a be3d ab1a 3c3e
000002d0: 27fa 3d3d 3e7e 4abd f3f3 12be 58e0 11bd
000002e0: 679b 533e 17b5 8cbd 5911 843e 3cb9 89be
000002f0: 32bb 75bd f2cf d1bd ce5a 9ebd 50db 8dbd
00000300: c53e d0bd ed7f 823d 04af 19be 62aa a1be
00000310: 9f38 be3e 8115 8dbe af1c aa3d 9b1c 453e
00000320: 89c5 b0bd 3aff 8dbe 448b 9a3e 1af7 90bc
00000330: c8e1 b1bd 8759 e8bd 55ad 503e ff0f 79be
00000340: 4a99 babe 07bf 3dbe 38b3 3d3e e3f4 e13d
00000350: 2e36 123f d9a0 04bd 5912 4b3e 690b 35be
00000360: dc20 ad3d cef0 633c df63 373e 5f0a 463e
00000370: 8339 6dbd 2b59 08bd 3926 56be f44d 833c
00000380: b194 033d 2c84 2e3d df42 50bd 96ef a13e
00000390: ea0d 09be 510c 53bb 9f3c 35be f414 25be
000003a0: b8b0 ad3c e214 053e 7e00 58be 8f17 25bb
000003b0: 2bd0 533d 1c4b 263f 6eb7 9b3c 0222 843e
000003c0: 6326 4bbe 4347 8e3e e2ea 8ebe e712 89be
000003d0: 76da 713e 8158 02be d863 67be 59ea c6be
000003e0: f10f 7abc 3dcf b63e 43c0 d4bd fd03 fe3c
000003f0: 943e bc3e b1a9 d9bd a152 dd3e 4f18 8a3e

conv1.bias f4 [8]
-0.051721796 0.024868706 0.0059508434 -0.06127693 -0.010140032 -0.034938518 -0.053170994 -0.008596126
00000000: 3cda 53bd 75b9 cb3c 4bff c23b 85fd 7abd
00000010: 6022 26bc b11b 0fbd d4c9 59bd c4d6 0cbc

bn1.weight f4 [8]
1.0751073 0.9406273 0.94439775 1.0412164 1.0232438 0.97278947 0.9590142 1.0671841
00000000: 1e9d 893f f3cc 703f 0dc4 713f 9446 853f
00000010: a7f9 823f bb08 793f f481 753f 7d99 883f

bn1.bias f4 [8]
-0.037670057 -0.04263684 -0.049915627 0.030005757 -0.11583225 -0.078808054 -0.015862823 0.008597693
00000000: eb4b 1abd f8a3 2ebd 5474 4cbd a2ce f53c
00000010: 7539 edbd 1e66 a1bd c0f2 81bc 57dd 0c3c

bn1.running_mean f4 [8]
0.41310182 0.18134028 0.70278704 0.40753198 0.23933896 0.72476995 0.19485034 0.15805715
00000000: 1582 d33e 44b1 393e dae9 333f 08a8 d03e
00000010: 4615 753e 868a 393f d986 473e bcd9 213e

bn1.running_var f4 [8]
0.38668868 0.1073506 1.1290063 0.35233667 0.18169242 1.2123638 0.12703937 0.11139512
00000000: 0ffc c53e a2da db3d 4783 903f 7965 b43e
00000010: 940d 3a3e bd2e 9b3f 9c16 023e 2023 e43d

conv2.weight f4 [16, 8, 3, 3]
-0.059551656 0.20281926 -0.046962112 0.057370853 0.09644098 0.18198113 -0.12641732 0.021573432
0.17983197 0.26835114 0.34570357 0.20617262 0.07522155 -0.09742152 0.16556343 0.08185598
-0.25080875 0.15880683 0.21620052 -0.17255552 -0.1610265 0.49655625 0.26913404 0.08334859
-0.0678978 0.11382752 0.099176995 -0.022013435 -0.14169258 0.13105863 0.18644261 -0.00020039195
-0.15366735 0.19682686 -0.17931226 0.015792677 0.022935458 0.0038895593 -0.05984824 -0.07112709
-0.05115829 -0.15951441 -0.09533325 -0.050011814 0.2533719 0.26590854 -0.03922177 0.088059425
0.26384744 0.38623154 0.064949 -0.021463392 -0.020915804 0.030687802 -0.117646195 -0.087068245
-0.1598443 0.12265062 0.24449463 0.1520891 -0.013515728 0.21734269 0.31433424 -0.13188386
0.0031521213 0.12155029 0.16245607 0.09409261 0.11622931 0.24691874 0.050821513 -0.23679759
0.112497576 0.21176231 0.24373719 0.23196538 0.222861 -0.16394274 -0.21884625 -0.3083245
-0.22256249 -0.10309942 0.078348234 0.048955537 -0.017532684 -0.18611714 -0.08819504 0.039230786
-0.14693771 -0.053738687 0.08800557 0.38401133 -0.08728338 0.10939866 0.113763005 0.044733062
0.015076116 -0.29553562 -0.25245038 -0.024968684 -0.23180595 -0.24585877 0.117797956 0.08423461
-0.04361504 0.3003386 -0.0019292687 0.09809964 -0.29416844 -0.07706501 -0.19568811 -0.014175253
-0.060464405 0.038373727 0.0856158 -0.13186994 0.0054668575 0.2746402 0.13598002 0.26383373
0.14010577 0.04123138 -0.024879145 0.04295866 0.18676583 -0.19843076 0.006594009 0.25246614
0.028551443 0.06035757 0.21862878 0.12156887 -0.2199235 -0.34699127 -0.10492892 0.12628797
0.35936674 -0.022503579 -0.12335576 -0.17927285 0.019507773 0.08666116 -0.0515688 -0.0025598654
-0.021219697 0.09960566 -0.11141727 0.10552916 -0.2632435 -0.23839466 0.08164753 -0.212366
-0.13624758 0.090618744 0.025240311 0.26703614 0.27464795 0.18889405 0.025410334 0.20654914
0.27420333 -0.07394916 -0.1614659 -0.04675021 0.03437673 -0.37522426 -0.009620959 -0.011081553
0.1862772 0.14434989 0.12894624 0.24277753 0.09236978 0.023160193 0.1047368 0.25580707
0.10176714 0.42441127 0.16543548 0.23023535 -0.2194993 -0.2774759 0.16062753 -0.15785988
-0.17600328 -0.12465623 -0.013140487 -0.09674498 0.11149572 0.07638161 -0.023359725 0.1024376
-0.11368798 0.19608925 0.14672181 -0.18806808 0.10806181 0.31650758 0.2305897 -0.041309766
-0.29904148 -0.19283664 0.19464193 -0.11168832 -0.034307666 0.05628424 -0.30138555 -0.16276388
-0.32593513 -0.18666014 -0.28111932 -0.330621 -0.44914022 -0.069300115 0.08235283 0.090784736
0.047399618 0.028496576 0.09859709 -0.009231507 -0.19905661 -0.26869354 -0.09053772 0.05071279
0.22581345 0.1969044 0.31834474 -0.02842718 0.23353077 -0.25029472 -0.01792097 -0.18112703
0.2272542 0.1772326 -0.22251786 0.23454946 -0.30990312 0.18444976 0.08665021 0.2505806
0.25490108 0.17207393 -0.0032209223 -0.34248504 -0.15538444 -0.2707474 -0.05925701 0.013575819
0.24713251 0.004277879 0.44417763 0.33129978 0.08612059 -0.10802666 -0.36820537 0.15870713
00000000: 70ec 73bd daaf 4f3e 585b 40bd b3fd 6a3d
00000010: d982 c53d 4359 3a3e 8b73 01be c4ba b03c
00000020: df25 383e 5265 893e 0f00 b13e ea1e 533e
00000030: c20d 9a3d ef84 c7bd 7689 293e 1ca4 a73d
00000040: 016a 80be 429e 223e ab63 5d3e 65b2 30be
00000050: 21e4 24be 9f3c fe3e f0cb 893e aab2 aa3d
00000060: 000e 8bbd 671e e93d 4f1d cb3d 8555 b4bc
00000070: dc17 11be 3c34 063e d0ea 3e3e 4e20 52b9
00000080: f95a 1dbe fb8c 493e a29d 37be a55f 813c
00000090: 24e3 bb3c fae7 7e3b 6e23 75bd 14ab 91bd
000000a0: 5b8b 51bd bf57 23be 143e c3bd 30d9 4cbd
000000b0: f6b9 813e 2a25 883e 02a7 20bd 8058 b43d
000000c0: 0317 873e 24c0 c53e fb03 853d ffd3 afbc
000000d0: 9f57 abbc fc64 fb3c 7df0 f0bd d650 b2bd
000000e0: 39ae 23be 4030 fb3d cd5c 7a3e 3fbd 1b3e
000000f0: 1271 5dbc 158f 5e3e 6bf0 a03e 900c 07be
00000100: d293 4e3b 5cef f83d e25a 263e a0b3 c03d
00000110: a209 ee3d 44d8 7c3e 382a 503d 117b 72be
00000120: 2165 e63d 38d8 583e 3e96 793e 5588 6d3e
00000130: ad35 643e 9be0 27be 3b19 60be b5dc 9dbe
00000140: 6ce7 63be ca25 d3bd 0a75 a03d 9a85 483d
00000150: b4a0 8fbc 7e95 3ebe 9a9f b4bd 76b0 203d
00000160: d776 16be 191d 5cbd 443c b43d 229d c43e
00000170: a1c1 b2bd 680c e03d 94fc e83d 043a 373d
00000180: d001 773c 7250 97be 2d41 81be 208b ccbc
00000190: 8a5e 6dbe 67c2 7bbe 0e40 f13d 3283 ac3d
000001a0: afa5 32bd fbc5 993e 84df fcba 77e8 c83d
000001b0: 3f9d 96be 43d4 9dbd 7762 48be 523f 68bc
000001c0: 86a9 77bd c52d 1d3d 5657 af3d ea08 07be
000001d0: 5323 b33b a49d 8c3e 593e 0b3e 3715 873e
000001e0: e377 0f3e 3ce2 283d 59cf cbbc 6bf5 2f3d
000001f0: 8b3f 3f3e 6f31 4bbe 8f12 d83b 3e43 813e
00000200: b7e4 e93c 8039 773d 39e0 5f3e 1af9 f83d
00000210: a033 61be d7a8 b1be f9e4 d6bd a251 013e
00000220: ebfe b73e 6d59 b8bc f2a1 fcbd 4d93 37be
00000230: c4ce 9f3c 687b b13d ce39 53bd 6ac3 27bb
00000240: eed4 adbc 0dfe cb3d bd2e e4bd ac1f d83d
00000250: dac7 86be bb1d 74be d236 a73d 7976 59be
00000260: 7c84 0bbe 5296 b93d c5c4 ce3c f6b8 883e
00000270: a89e 8c3e 716d 413e 5529 d03c 9e81 533e
00000280: 6164 8c3e a872 97bd 5157 25be 267d 3fbd
00000290: 9dce 0c3d 651d c0be 3aa1 1dbc 678f 35bc
000002a0: 73bf 3e3e 75d0 133e 7c0a 043e ac9a 783e
000002b0: 5e2c bd3d 72ba bd3c 3f80 d63d 25f9 823e
000002c0: 4a6b d03d 6f4c d93e eb67 293e d1c2 6b3e
000002d0: 6dc4 60be 5211 8ebe 8b7b 243e 05a6 21be
000002e0: 343a 34be c44b ffbd 324b 57bc 3b22 c6bd
000002f0: de57 e43d f66d 9c3d e55c bfbc ceca d13d
00000300: 3ed5 e8bd 9fcb 483e 3e3e 163e eb94 40be
00000310: 834f dd3d 480d a23e b51f 6c3e 6e34 29bd
00000320: f71b 99be f876 45be 3750 473e d9bc e4bd
00000330: 3286 0cbd 4e8a 663d 354f 9abe 93ab 26be
00000340: f8e0 a6be d623 3fbe dfee 8fbe 2847 a9be
00000350: b5f5 e5be 38ed 8dbd 9aa8 a83d 59ed b93d
00000360: 1a26 423d a771 e93c 45ed c93d bf3f 17bc
00000370: 7fd5 4bbe 3392 89be d76b b9bd 37b8 4f3d
00000380: a43b 673e 4fa1 493e 15fe a23e 1ee0 e8bc
00000390: b122 6f3e a126 80be 00cf 92bc 5d79 39be
000003a0: 53b5 683e 767c 353e b9db 63be bc2d 703e
000003b0: 9fab 9ebe 66e0 3c3e aa75 b13d 1a4c 803e
000003c0: 6582 823e 2634 303e 1c16 53bb 335a afbe
000003d0: 191d 1fbe 679f 8abe 7bb7 72bd 1d6d 5e3c
000003e0: 4e10 7d3e 732d 8c3b 406b e33e 20a0 a93e
000003f0: fe5f b03d 153d ddbd 6a85 bcbe 1f84 223e

conv2.bias f4 [16]
-0.031444117 -0.03195677 -0.08088539 -0.088755414 -0.0018497654 -0.057718363 0.055414125 -0.032251857
0.06506941 0.035636626 -0.11634738 -0.12529567 0.037081894 0.05439058 0.060409345 -0.007411822
00000000: 8ccb 00bd 1ae5 02bd 3da7 a5bd 66c5 b5bd
00000010: d473 f2ba 176a 6cbd ecf9 623d 861a 04bd
00000020: 1c43 853d b6f7 113d 8947 eebd 824d 00be
00000030: 2fe3 173d a8c8 5e3d ca6f 773d dfde f2bb

bn2.weight f4 [16]
1.0062299 1.0190557 0.99045146 1.0100342 0.9581523 1.1164407 0.9788139 1.1061153
1.0329847 0.9679557 0.9082435 1.0266782 1.014346 0.94426686 0.9293008 0.9920883
00000000: 24cc 803f 6b70 823f 3a8e 7d3f cd48 813f
00000010: 7849 753f 87e7 8e3f 8c93 7a3f 3095 8d3f
00000020: d838 843f f2cb 773f a582 683f 316a 833f
00000030: 17d6 813f 79bb 713f a8e6 6d3f 80f9 7d3f

bn2.bias f4 [16]
0.01297026 0.22994664 -0.19410095 0.029103456 0.011151223 0.1060192 -0.019455684 0.04236109
0.031403888 -0.02313621 0.18825927 0.052198794 0.076506324 0.028860372 0.17313921 0.10567463
00000000: 3781 543c 2277 6b3e 66c2 46be 5f6a ee3c
00000010: 9fb3 363c 9820 d93d 8761 9fbc d382 2d3d
00000020: 5da1 003d 2688 bdbc 0ac7 403e 67ce 553d
00000030: 59af 9c3d 966c ec3c 684b 313e f16b d83d

bn2.running_mean f4 [16]
0.81376386 0.49789482 0.6810876 0.44915977 0.44129282 0.57804966 0.69747126 0.4453408
1.0254539 0.97028583 0.37561327 0.40544957 0.9612142 0.98523337 1.2505327 0.683995
00000000: d452 503f 12ec fe3e c25b 2e3f 45f8 e53e
00000010: 22f1 e13e 10fb 133f 7a8d 323f b603 e43e
00000020: 1342 833f a764 783f 6250 c03e 1697 cf3e
00000030: 2212 763f 4138 7c3f 7511 a03f 4c1a 2f3f

bn2.running_var f4 [16]
2.7265968 0.667685 1.0837965 1.192346 0.69625604 1.8776788 0.98481154 0.9004069
1.9887124 1.1499089 0.57154 0.9445885 2.3934503 1.0199536 1.9532782 1.1027268
00000000: 9080 2e40 67ed 2a3f d8b9 8a3f cb9e 983f
00000010: d63d 323f c757 f03f 9c1c 7c3f 1181 663f
00000020: 218e fe3f 3730 933f 7250 123f 8dd0 713f
00000030: 4a2e 1940 d78d 823f 0505 fa3f 2726 8d3f

conv3.weight f4 [32, 16, 3, 3]
0.054789707 0.17898227 -0.018079087 -0.07588293 -0.11112581 0.04682675 0.039918844 0.076091684
0.038344335 0.044675425 -0.024204865 0.18119748 -0.20750901 0.13243319 0.15026711 -0.19712883
-0.066743426 0.12683989 -0.11664289 -0.0255825 -0.28451476 -0.30793804 0.13009298 0.03813072
-0.121089876 0.13160707 0.14234571 -0.10797924 0.10608825 -0.084765516 -0.110316284 -0.1800027
-0.17375292 0.043828025 0.013942934 0.015759913 -0.2403326 -0.067584574 0.054578364 -0.019269984
-0.13776712 -0.08245907 0.00741699 -0.054906785 0.15972352 -0.36477098 -0.22793315 -0.42718264
-0.31965694 -0.34006968 -0.45084316 -0.13325018 0.039209507 -0.31886333 0.30038458 -0.10830552
0.08259397 0.14110099 -0.16428895 -0.049804702 0.017814755 -0.03303632 0.14437692 -0.056738213
-0.07009032 -0.13511643 -0.30781466 -0.22867768 -0.02197765 -0.02698382 -0.052506115 -0.20600377
-0.2552066 -0.17273252 -0.17007928 -0.18775356 -0.17089026 -0.041428626 -0.15127358 -0.023408474
0.10226732 0.0066958247 0.09733541 -0.0005216359 -0.07412838 -0.08851782 -0.10934394 -0.052715436
-0.06159208 -0.20597836 -0.14748988 -0.20540625 -0.087231435 0.11006614 0.07586982 0.0067508873
-0.012831984 -0.17299299 -0.11744134 0.007816894 0.023720898 -0.021926772 -0.09660396 0.018270386
0.08129242 -0.070543 0.2094353 -0.12450753 0.17064925 0.0005246975 -0.038226213 0.032155927
0.18259476 -0.011537652 -0.20310508 -0.0020466312 0.09862628 0.008530832 -0.2593921 0.056092184
0.1025819 0.010056821 0.021556994 0.109240666 -0.0344326 0.060295824 -0.22987457 -0.15481782
-0.16459209 -0.10597642 -0.049719714 -0.06610895 0.11918094 0.07729705 0.02391092 -0.066651575
0.16922572 -0.08776284 0.1270288 -0.11400852 0.07632258 0.056339752 -0.012534718 0.018236753
0.09915594 -0.18380405 -0.20826839 0.083255686 -0.13244265 -0.061410602 0.043945704 -0.09302709
0.017060563 -0.23873782 -0.09018612 -0.024378175 -0.23003222 0.075172916 -0.10405938 -0.13178118
-0.10784682 -0.021384425 0.09301335 -0.11409013 -0.082501456 0.068184935 -0.049560994 -0.17143463
-0.06042683 0.24867366 0.10006669 0.01441211 0.13314334 -0.09302785 -0.2923527 -0.0018554189
-0.28460214 -0.08417398 0.03901334 -0.042645346 -0.006730227 -0.14981705 0.0398292 -0.038008608
-0.097266816 0.1979217 0.05953905 0.05943158 -0.080132954 0.06406514 -0.16485636 -0.052797627
-0.017593635 0.011474685 -0.061728418 0.1568656 0.11221711 -0.0014837021 0.13114974 -0.2621355
-0.1147696 0.06041347 -0.01210187 0.031387262 0.00931009 0.09142483 0.12091894 -0.1740367
0.14132293 -0.100654796 -0.0029535932 0.09190835 0.058392987 0.14964877 0.05095129 0.13896245
0.03379691 0.061607607 0.048238643 0.043314293 -0.08014415 0.05849727 -0.04717348 0.031195512
0.023620438 0.03909675 0.0007027998 0.16071779 -0.07738931 0.06700027 0.06404656 -0.028235193
0.1309834 0.04826535 0.09376351 0.11597516 -0.07507844 -0.04933434 0.10108313 0.19414979
-0.06143019 -0.09253153 0.07841138 0.12981394 -0.19080192 -0.22634518 -0.18053047 0.046118442
0.023846533 -0.1334255 0.1358738 -0.061089344 -0.08496064 -0.05591764 -0.043675095 0.20840496
00000000: 2c6b 603d 2147 373e 981a 94bc 8268 9bbd
00000010: ee95 e3bd 68cd 3f3d f181 233d f5d5 9b3d
00000020: f30e 1d3d 94fd 363d 4849 c6bc d58b 393e
00000030: 3e7d 54be 919c 073e 9fdf 193e 24dc 49be
00000040: c7b0 88bd 51e2 013e 78e2 eebd 6492 d1bc
00000050: ebab 91be 0eaa 9dbe 1837 053e f52e 1c3d
00000060: f8fd f7bd 01c4 063e 13c3 113e 3824 ddbd
00000070: cc44 d93d 8b99 adbd 81ed e1bd a152 38be
00000080: 49ec 31be 0485 333d e770 643c ef1a 813c
00000090: c019 76be c869 8abd 908d 5f3d 16dc 9dbc
000000a0: d312 0dbe 4de0 a8bd 390a f33b f0e5 60bd
000000b0: 908e 233e 43c3 babe 4f67 69be afb7 dabe
000000c0: 13aa a3be 9d1d aebe ead4 e6be bc72 08be
000000d0: 269a 203d 0e42 a3be 02cc 993e 49cf ddbd
000000e0: 0727 a93d c77c 103e 5d3b 28be 0400 4cbd
000000f0: 40f0 913c 1851 07bd 8bd7 133e 5466 68bd
00000100: 848b 8fbd f65b 0abe e299 9dbe 7b2a 6abe
00000110: 790a b4bc 2c0d ddbc a710 57bd a7f2 52be
00000120: 71aa 82be cbe0 30be 4329 2ebe 7842 40be
00000130: dbfd 2ebe 10b1 29bd 76e7 1abe 21c3 bfbc
00000140: 8771 d13d a668 db3b ca57 c73d 65be 08ba
00000150: 9fd0 97bd d548 b5bd b7ef dfbd 24ec 57bd
00000160: fa47 7cbd feeb 52be 9607 17be 0456 52be
00000170: 65a6 b2bd 5b6a e13d a361 9b3d 8c36 dd3b
00000180: 3e3d 52bc 1325 31be 1685 f0bd 6e12 003c
00000190: 5452 c23c c69f b3bc 4cd8 c5bd c7ab 953c
000001a0: a47c a63d d978 90bd 3576 563e cefd febd
000001b0: adbe 2e3e da8b 093a 1793 1cbd efb5 033d
000001c0: 1ffa 3a3e 6c08 3dbc c7fa 4fbe c620 06bb
000001d0: 93fc c93d e7c4 0b3c 0bcf 84be ebc0 653d
000001e0: 7616 d23d 5dc5 243c 4b98 b03c 92b9 df3d
000001f0: 3309 0dbd c1f8 763d 3d64 6bbe 9088 1ebe
00000200: d48a 28be 2a0a d9bd e6a6 4bbd 2164 87bd
00000210: 2315 f43d ea4d 9e3d d5e0 c33c 9f80 88bd
00000220: 8249 2d3e 01bd b3bd d613 023e 4d7d e9bd
00000230: 034f 9c3d 83c4 663d 6b5e 4dbc 3e65 953c
00000240: 4512 cb3d 2137 3cbe 4f44 55be f581 aa3d
00000250: 0c9f 07be af89 7bbd 6900 343d fd84 bebd
00000260: 98c2 8b3c b077 74be 80b3 b8bd bdb4 c7bc
00000270: 918d 6bbe 42f4 993d 161d d5bd a5f1 06be
00000280: cbde dcbd 642e afbc c97d be3d 16a8 e9bd
00000290: 86f6 a8bd 8ba4 8b3d 7800 4bbd 8f8c 2fbe
000002a0: 2082 77bd 4fa4 7e3e c4ef cc3d c520 6c3c
000002b0: ba56 083e 6385 bebd 41af 95be 8731 f3ba
000002c0: 5fb7 91be 6863 acbd 74cc 1f3d e3ac 2ebd
000002d0: 3c89 dcbb a469 19be f123 233d eaae 1bbd
000002e0: d333 c7bd fcab 4a3e 38df 733d 876e 733d
000002f0: bf1c a4bd 9634 833d 1bd0 28be 5342 58bd
00000300: 8720 90bc 5100 3c3c f0d6 7cbd 60a1 203e
00000310: 16d2 e53d c878 c2ba 1e4c 063e a036 86be
00000320: 530c ebbd 1d74 773d ec46 46bc ee8f 003d
00000330: 5989 183c f13c bb3d 59a4 f73d ad36 32be
00000340: f5b6 103e 1a24 cebd 1291 41bb 723a bc3d
00000350: 7c2d 6f3d 873d 193e 4db2 503d 2c4c 0e3e
00000360: a16e 0a3d 4258 7c3d e295 453d 546a 313d
00000370: 9e22 a4bd d59a 6f3d fb38 41bd bb8d ff3c
00000380: a67f c13c ea23 203d 193c 383a 3493 243e
00000390: 497e 9ebd 7037 893d d82a 833d 7e4d e7bc
000003a0: 8320 063e e3b1 453d 1507 c03d 6284 ed3d
000003b0: bac2 99bd ce12 4abd ac04 cf3d 34cf 463e
000003c0: 399e 7bbd 2c81 bdbd 2596 a03d f2ed 043e
000003d0: 9461 43be 08c7 67be fbdc 38be b1e6 3c3d
000003e0: ce59 c33c b2a0 08be 8022 0b3e d238 7abd
000003f0: d8ff adbd e509 65bd a8e4 32bd 1c68 553e

conv3.bias f4 [32]
-0.09050246 -0.1646288 -0.10458 -0.020850707 -0.018779494 -0.22285518 0.009198645 -0.044420872
0.08170607 -0.03307296 0.025971156 -0.14887461 -0.046238504 -0.067056276 -0.03663237 -0.105585
-0.0721354 0.010589648 -0.16410264 -0.00605434 -0.105257094 0.004873427 -0.11178285 -0.048605125
-0.1475114 -0.038722362 -0.10637433 -0.28646615 -0.0995265 0.04761562 0.004600547 -0.14456351
00000000: 5b59 b9bd 7494 28be 0a2e d6bd 1acf aabc
00000010: 74d7 99bc 2634 64be eab5 163c a9f2 35bd
00000020: 8355 a73d 8377 07bd 76c1 d43c 9672 18be
00000030: 9664 3dbd cd54 89bd d30b 16bd f33c d8bd
00000040: b9bb 93bd 3480 2d3c 860a 28be 7c63 c6bb
00000050: 0891 d7bd 45b1 9f3b 68ee e4bd 2b16 47bd
00000060: 3a0d 17be 579b 1ebd c9da d9bd b1ab 92be
00000070: 8dd4 cbbd 9908 433d 2fc0 963b 7508 14be

bn3.weight f4 [32]
0.9590684 0.96807235 0.9088806 0.9969257 1.0434042 0.9955829 0.9237032 1.0164311
0.91280675 0.950376 1.0410087 0.95206773 1.0280349 0.9568564 0.9796252 1.0210309
1.0608635 1.0538092 0.9946353 0.91270536 0.9641357 1.0751991 1.0088168 0.9457874
0.98927087 1.0297507 0.9567403 1.0540183 1.028163 1.0102135 1.0499496 0.9273275
00000000: 8285 753f 97d3 773f 66ac 683f 8636 7f3f
00000010: 458e 853f 85de 7e3f d077 6c3f 6a1a 823f
00000020: b4ad 693f d74b 733f c63f 853f b6ba 733f
00000030: a696 833f 8bf4 743f b8c8 7a3f 24b1 823f
00000040: 60ca 873f 38e3 863f 6ba0 7e3f 0fa7 693f
00000050: 99d1 763f 20a0 893f e920 813f 1f1f 723f
00000060: db40 7d3f dfce 833f efec 743f 12ea 863f
00000070: d89a 833f ad4e 813f c064 863f 5665 6d3f

bn3.bias f4 [32]
-0.19615106 0.06813066 0.2160145 0.1774979 -0.14494804 -0.22237797 0.2756755 0.029761083
0.17144991 0.14654665 0.06321316 0.0647812 -0.19378835 0.3444536 0.06084856 -0.101096
0.34352517 0.116692975 0.13544476 0.05839824 0.16406095 -0.21598847 -0.19514416 -0.15608826
0.30493206 0.15277411 0.22779796 0.39021844 0.069842495 -0.07720972 0.03260283 -0.010596855
00000000: d3db 48be 1688 8b3d e832 5d3e 02c2 353e
00000010: 426d 14be 0db7 63be 5725 8d3e 84cd f33c
00000020: 9190 2f3e 5310 163e e775 813d 01ac 843d
00000030: 7470 46be 395c b03e 573c 793d 6b0b cfbd
00000040: 88e2 af3e bafc ee3d 08b2 0a3e fe32 6f3d
00000050: 98ff 273e 152c 5dbe dfd3 47be 9ad5 1fbe
00000060: 0e20 9c3e d170 1c3e de43 693e b6ca c73e
00000070: 9509 8f3d 2120 9ebd 8c8a 053d 6e9e 2dbc

bn3.running_mean f4 [32]
0.6922306 0.41388616 0.5887466 0.8136341 0.8783325 0.40136293 0.55474526 0.6923053
0.7254189 0.51436245 0.48596495 0.79322845 0.5472387 0.2476612 0.6945316 0.7408627
0.603001 0.71289194 0.4179219 1.092141 0.5609634 0.88359284 0.7977999 0.57777
0.728214 0.99987185 0.5576961 0.31042165 0.5380723 0.5677251 0.6635764 0.48251837
00000000: 0636 313f e3e8 d33e 19b8 163f 534a 503f
00000010: 66da 603f 717f cd3e c903 0e3f ec3a 313f
00000020: 0eb5 393f 42ad 033f 66d0 f83e 0511 4b3f
00000030: d617 0c3f e69a 7d3e d3cc 313f 2ea9 3d3f
00000040: 465e 1a3f 1680 363f dcf9 d53e 47cb 8b3f
00000050: 4c9b 0f3f 2433 623f 9d3c 4c3f bce8 133f
00000060: 3c6c 3a3f 9af7 7f3f 2cc5 0e3f 96ef 9e3e
00000070: 1bbf 093f 6f56 113f 25e0 293f a60c f73e

bn3.running_var f4 [32]
0.748493 0.38622922 0.7305773 1.2950989 1.1196735 0.44516176 0.9270626 0.8543808
1.042485 0.49443454 0.4987893 1.0188153 0.9015554 0.4437286 1.3381846 2.4272783
1.7031325 0.8067015 0.69917285 1.5068948 0.7556785 1.0696601 1.0019311 0.66613984
0.7896154 1.0273825 1.105861 0.6138507 1.1074313 0.68017894 0.8004926 0.4488787
00000000: 3d9d 3f3f d6bf c53e 1d07 3b3f cdc5 a53f
00000010: 7651 8f3f 3eec e33e f953 6d3f b3b8 5a3f
00000020: 2670 853f 8626 fd3e 5061 ff3e 8a68 823f
00000030: 56cc 663f 6530 e33e a249 ab3f 8758 1b40
00000040: 3f00 da3f fd83 4e3f fefc 323f eee1 c03f
00000050: 2574 413f 9fea 883f 473f 803f 2488 2a3f
00000060: 3c24 4a3f 4581 833f da8c 8d3f 5225 1d3f
00000070: 4fc0 8d3f 3520 2e3f 15ed 4c3f 6ed3 e53e

conv4.weight f4 [64, 32, 3, 3]
0.05631467 0.028144732 0.20490427 0.018689808 0.057012707 0.0004432735 0.048533868 -0.072034314
0.038532235 -0.016057367 -0.03701233 -0.015741272 -0.019971075 -0.030379819 -0.13193625 0.016495049
0.0066012274 -0.05024364 -0.081557356 0.018317377 0.019759092 -0.16087876 0.11447427 -0.020838192
-0.0025073765 -0.06414371 -0.15157059 0.1939829 0.12733273 0.11033753 -0.19054742 3.0616455e-05
-0.074927665 0.041981548 0.10325954 0.026653431 -0.21865089 -0.022955947 -0.12374462 0.10416224
0.11911761 0.16148621 0.09082284 0.11735685 0.08127108 -0.028625928 -0.100944735 -0.0514719
-0.10999224 -0.1306085 -0.0373672 -0.18388766 -0.041501198 -0.042717084 -0.035024554 -0.15903664
-0.12395372 0.016245427 -0.107548095 -0.086362466 -0.053418014 0.06290488 0.06647377 -0.0067897555
0.02854648 -0.08212181 0.02361716 -0.09900695 0.07564322 -0.11943146 -0.06569041 -0.025358345
0.059247017 0.1940567 0.095889814 -0.09505941 -0.057219375 -0.08012763 -0.09566056 0.06457463
-0.0076304623 -0.09402851 -0.010097414 -0.09059275 0.028875338 0.024884963 0.006855118 0.08147357
0.121517345 0.08523051 -0.10619579 -0.08124826 -0.18139824 -0.07016458 -0.08928599 -0.11349551
-0.14136906 -0.08591452 -0.075306945 -0.14249672 -0.012639092 0.020316178 -0.018795578 -0.11413753
-0.0672885 0.041240495 -0.0742605 -0.17220858 -0.07058425 -0.15192418 0.07494593 -0.09928497
-0.021716053 -0.015199635 0.16005881 -0.018105293 -0.032726966 0.062490262 0.05938431 0.06275977
-0.047572207 -0.22312272 -0.073179334 -0.07592476 -0.07695026 -0.18718861 0.01718034 0.0037081996
-0.0398732 -0.17612366 -0.0025562106 -0.021185532 -0.11687038 0.030194271 -0.040290676 0.11147887
0.098851085 0.0018388451 -0.010734228 0.16554734 -0.007550459 0.012887267 0.15198557 0.19876194
-0.004499052 0.13210946 0.02573305 0.051243912 0.14563869 0.037822913 -0.05926064 -0.00035689416
-0.09136031 0.1356367 -0.047093928 -0.00044098386 0.03377315 0.07929238 -0.016881892 0.14692317
-0.023677202 0.067180306 -0.058858346 -0.024603812 -0.07716319 -0.044028796 -0.051764864 0.0112922015
0.10319807 0.09238767 -0.033250686 -0.15103059 -0.013913072 -0.11425438 -0.13116147 0.05334233
0.014921194 -0.011963728 -0.013955384 -0.035525117 -0.0023207895 -0.019682726 0.028376786 -0.12365369
-0.0032581738 -0.00047415463 -0.15773338 -0.10182215 -0.19789617 -0.08589106 0.095958024 -0.063830584
0.041249245 -0.053483494 -0.006296658 0.012624358 -0.011876428 -0.13474898 0.14516445 -0.111927934
0.03604979 0.07715859 0.009588206 0.031216858 -0.13601059 -0.17918874 -0.064562365 0.14089663
0.07199788 -0.090384655 0.006932502 0.025676012 0.09844392 0.19327529 -0.02398094 0.051344506
0.035559993 0.116259485 0.18754856 0.1026806 0.015658526 0.13812171 0.023333166 -0.031156728
0.02527274 0.008278444 -0.09200252 0.0132073825 0.0004443931 0.075951524 0.028500231 0.00445387
-0.036401704 0.043763205 -0.0597144 -0.053879794 -0.020260409 0.058216035 0.110683404 -0.030411668
0.07889743 -0.031988144 -0.014857541 -0.05317245 0.20172094 0.054483 -0.12302751 -0.10162611
-0.1071912 0.024158375 -0.18916374 -0.06922796 0.13912864 0.080032095 0.12614788 -0.099465884
00000000: 36aa 663d c88f e63c 6dd2 513e 5e1b 993c
00000010: 2886 693d 2967 e839 73cb 463d ba86 93bd
00000020: fad3 1d3d bd8a 83bc 3e9a 17bd d7f3 80bc
00000030: 619a a3bc 19df f8bc 4c1a 07be a020 873c
00000040: 1c4f d83b 46cc 4dbd 8b07 a7bd 530e 963c
00000050: d2dd a13c 67bd 24be 7c71 ea3d dbb4 aabc
00000060: cc52 24bb c75d 83bd 5235 1bbe 74a3 463e
00000070: 8363 023e a5f8 e13d dd1e 43be 2b6a 0038
00000080: ad73 99bd d8f4 2b3d bd79 d33d 4c58 da3c
00000090: 05e6 5fbe 1c0e bcbc d26d fdbd 0353 d53d
000000a0: eff3 f33d a45c 253e 5301 ba3d ca58 f03d
000000b0: 7471 a63d ec80 eabc 1dbc cebd 33d4 52bd
000000c0: 9d43 e1bd 3cbe 05be 590e 19bd 0c4d 3cbe
000000d0: 29fd 29bd 1cf8 2ebd e875 0fbd 80da 22be
000000e0: 73db fdbd 2115 853c 2d42 dcbd cede b0bd
000000f0: d9cc 5abd 46d4 803d 6623 883d 997c debb
00000100: 4fda e93c 7b2f a8bd c678 c13c 28c4 cabd
00000110: d5ea 9a3d 7b98 f4bd b288 86bd 4ebc cfbc
00000120: 00ad 723d cdb6 463e e161 c43d 82ae c2bd
00000130: dd5e 6abd f419 a4bd afe9 c3bd b43f 843d
00000140: f508 fabb 0592 c0bd a06f 25bc b188 b9bd
00000150: f98b ec3c 8ddb cb3c e6a0 e03b 9ddb a63d
00000160: 16de f83d 558d ae3d 2e7d d9bd 7d65 a6bd
00000170: 76c0 39be 73b2 8fbd 93db b6bd 5570 e8bd
00000180: 0dc3 10be f4f3 afbd 873a 9abd a9ea 11be
00000190: 3214 4fbc 1d6e a63c 2ff9 99bc f0c0 e9bd
000001a0: 8ece 89bd cbeb 283d e415 98bd 7257 30be
000001b0: 7a8e 90bd 0392 1bbe 407d 993d eb55 cbbd
000001c0: dde5 b1bc e407 79bc 75e6 233e 8d51 94bc
000001d0: b60c 06bd caf5 7f3d f63c 733d 3288 803d
000001e0: 13db 42bd 487a 64be 0cdf 95bd 717e 9bbd
000001f0: 1998 9dbd 5fae 3fbe c9bd 8c3c 4405 733b
00000200: 1552 23bd c359 34be 1986 27bb 488d adbc
00000210: bd59 efbd fa59 f73c d607 25bd 094f e43d
00000220: 7072 ca3d 6705 f13a 9ede 2fbc 3e85 293e
00000230: d769 f7bb 1e25 533c 1ba2 1b3e 4088 4b3e
00000240: c96c 93bb b447 073e 1ece d23c 23e5 513d
00000250: 4f22 153e 33ec 1a3d 49bb 72bd 861d bbb9
00000260: 1d1b bbbd 59e4 0a3e 90e5 40bd da33 e7b9
00000270: b755 0a3d 0b64 a23d e54b 8abc 0773 163e
00000280: b1f6 c1bc d495 893d 7315 71bd ef8d c9bc
00000290: bc07 9ebd 8a57 34bd 6507 54bd ed02 393c
000002a0: 8259 d33d bf35 bd3d df31 08bd c3a7 1abe
000002b0: a7f3 63bc 33fe e9bd 314f 06be 7d7d 5a3d
000002c0: 0678 743c 8303 44bc 1fa5 64bc c982 11bd
000002d0: 6318 18bb ab3d a1bc 6f76 e83c 253e fdbd
000002e0: 1687 55bb f597 f8b9 dc84 21be 2288 d0bd
000002f0: 4ba5 4abe a7e7 afbd a485 c43d 9cb9 82bd
00000300: f8f4 283d 8211 5bbd 3254 cebb 65d6 4e3c
00000310: 5995 42bc a3fb 09be fda5 143e 793a e5bd
00000320: f2a8 133d 5305 9e3d da17 1d3c 7fba ff3c
00000330: 5c46 0bbe 417d 37be 4639 84bd 3547 103e
00000340: a073 933d 971b b9bd 0b2a e33b 8056 d23c
00000350: f79c c93d f5e9 453e ad73 c4bc 9e4e 523d
00000360: 5ba7 113d 7419 ee3d bb0c 403e 354a d23d
00000370: 4f46 803c c76f 0d3e 3225 bf3c 653c ffbc
00000380: c708 cf3c 50a2 073c d16b bcbd c763 583c
00000390: 6ffd e839 798c 9b3d 5179 e93c c5f1 913b
000003a0: f419 15bd 0c41 333d 1697 74bd 0fb1 5cbd
000003b0: 28f9 a5bc f073 6e3d fbad e23d e421 f9bc
000003c0: fa94 a13d 0006 03bd 0b6d 73bc 5bcb 59bd
000003d0: ef8f 4e3e 9129 5f3d d9f5 fbbd 5a21 d0bd
000003e0: 0f87 dbbd c9e7 c53c 24b4 41be 64c7 8dbd
000003f0: bd77 0e3e dee7 a33d e92c 013e c5b4 cbbd

conv4.bias f4 [64]
-0.07865316 0.10710785 -0.113594666 -0.13874201 -0.073340744 -0.16179618 -0.07379981 -0.16487074
0.027609752 -0.15240346 0.0013022727 0.060588602 -0.058902364 -0.023853837 -0.083147615 -0.1040801
-0.11697532 -0.013901862 -0.1116117 -0.1598744 0.024750706 -0.24367177 -0.11973214 -0.14969333
-0.2668315 -0.10995189 -0.1384082 -0.063219465 -0.05325911 0.15481593 -0.51199883 0.036345452
-0.1836569 -0.13492692 0.121570826 -0.0027084504 -0.17346865 0.027586235 -0.12616374 -0.0708907
-0.0736162 -0.10946184 -0.096754245 -0.12449199 -0.06181628 -0.123036355 -0.20723037 -0.20579974
-0.06913239 0.041774467 -0.00837981 -0.13381392 -0.02488736 -0.00031569318 0.00028832414 -0.05350227
-0.050234605 0.073519945 -0.11088506 -0.14282127 -0.1053617 -0.09810803 -0.12485418 0.08210894
00000000: e814 a1bd 5c5b db3d 52a4 e8bd 6312 0ebe
00000010: ac33 96bd e6ad 25be 5b24 97bd e0d3 28be
00000020: d92d e23c a70f 1cbe 05b1 aa3a c12b 783d
00000030: 9b43 71bd 1f69 c3bc 4c49 aabd f327 d5bd
00000040: c290 efbd a3c4 63bc ad94 e4bd 1db6 23be
00000050: fec1 ca3c 1885 79be 2036 f5bd 3549 19be
00000060: 239e 88be 752e e1bd e1ba 0dbe 3579 81bd
00000070: 3926 5abd 1188 1e3e 5b12 03bf f8de 143d
00000080: 8e10 3cbe 482a 0abe 20fa f83d 4280 31bb
00000090: c4a1 31be 87fc e13c 1131 01be 252f 91bd
000000a0: 17c4 96bd 872d e0bd 1727 c6bd a8f5 febd
000000b0: 1133 7dbd 7cfa fbbd 3334 54be 2bbd 52be
000000c0: 4895 8dbd b41b 2b3d 784b 09bc 8406 09be
000000d0: 94e0 cbbc 9f83 a5b9 362a 9739 3225 5bbd
000000e0: cdc2 4dbd a091 963d b517 e3bd bd3f 12be
000000f0: e0c7 d7bd ddec c8bd 8cb3 ffbd bb28 a83d

bn4.weight f4 [64]
1.463973 1.1425822 1.3839079 1.4440453 1.5045031 1.5642672 1.35344 1.4368656
1.5602417 1.5916898 1.3357383 1.5315796 1.2397537 1.39875 1.6061033 1.4103346
1.3588424 1.4395916 1.3840706 1.2646667 1.4797328 1.4487462 1.4770516 1.5319173
1.5985036 1.2377453 1.5192753 1.2644445 1.4341362 1.3969874 1.5956655 1.4644498
1.3794686 1.352319 1.4197516 1.4536427 1.3900253 1.302949 1.4597358 1.5444878
1.403625 1.4344087 1.3073943 1.5965567 1.2947361 1.5934837 1.5657837 1.5619586
1.5779212 1.3333589 1.5276442 1.2660265 1.4558562 1.4022033 1.4777169 1.5697623
1.448927 1.4296637 1.5267936 1.5489774 1.4560423 1.5246316 1.341376 1.4304674
00000000: 7863 bb3f 2240 923f e523 b13f 7ad6 b83f
00000010: 8f93 c03f e839 c83f 863d ad3f 36eb b73f
00000020: 00b6 c73f 7ebc cb3f 79f9 aa3f cd0a c43f
00000030: 40b0 9e3f 3d0a b33f cb94 cd3f d885 b43f
00000040: 8cee ad3f 8a44 b83f 3a29 b13f 99e0 a13f
00000050: e267 bd3f 8470 b93f 0710 bd3f de15 c43f
00000060: c49b cc3f 706e 9e3f 9d77 c23f 51d9 a13f
00000070: c691 b73f 7cd0 b23f c43e cc3f 1773 bb3f
00000080: 6d92 b03f ca18 ad3f 6cba b53f f710 ba3f
00000090: 59ec b13f 08c7 a63f 9fd8 ba3f c7b1 c53f
000000a0: fca9 b33f b49a b73f b258 a73f f85b cc3f
000000b0: eab9 a53f 46f7 cb3f 9a6b c83f 42ee c73f
000000c0: 52f9 c93f 81ab aa3f d889 c33f 280d a23f
000000d0: 7f59 ba3f 667b b33f d425 bd3f f9ed c83f
000000e0: 7176 b93f 38ff b63f f96d c33f e444 c63f
000000f0: 985f ba3f 2127 c33f 35b2 ab3f 8e19 b73f

bn4.bias f4 [64]
-0.1209173 -0.15336518 -0.29038957 -0.10217664 0.08100497 0.031176545 -0.1302352 0.118551396
0.1000432 0.07632503 0.03472229 -0.12389417 0.10904998 -0.03358786 0.20842116 -0.04226306
-0.17251861 -0.1740651 -0.16681719 -0.092932366 0.0032934446 -0.0999513 -0.038060088 0.092178784
-0.008554821 -0.10464509 -0.058370672 0.124816194 -0.1476387 0.250888 0.107671045 0.052437052
-0.12509517 0.16701052 -0.028172547 -0.10295237 -0.029200269 0.0067368457 0.032944255 0.095935404
0.014768966 0.009876905 0.04132236 0.022465484 -0.09268718 0.09422385 -0.092514984 -0.13703819
-0.18609591 0.23054121 0.017880285 0.11297565 0.04540117 0.1737965 0.1588456 0.103639744
-0.2066068 0.103151806 -0.015242038 -0.2465421 -0.11301035 -0.07694593 0.13364705 -0.059338674
00000000: 7da3 f7bd c30b 1dbe f1ad 94be fc41 d1bd
00000010: efe5 a53d f465 ff3c 605c 05be 13cb f23d
00000020: 73e3 cc3d 4c50 9c3d f638 0e3d 3abc fdbd
00000030: 9955 df3d 6d93 09bd 5b6c 553e 081c 2dbd
00000040: b8a8 30be 1f3e 32be 20d2 2abe 5353 bebd
00000050: d5d6 573b 44b3 ccbd e5e4 1bbd 3bc8 bc3d
00000060: 8529 0cbc 2a50 d6bd 1616 6fbd a29f ff3d
00000070: 992e 17be 6474 803e a382 dc3d 3cc8 563d
00000080: f318 00be ce04 2b3e 1dca e6bc b1d8 d2bd
00000090: 6735 efbc c2c0 dc3b 8ef0 063d c879 c43d
000000a0: 88f9 713c bed2 213c a341 293d 8909 b83c
000000b0: c7d2 bdbd 6ff8 c03d 7f78 bdbd bd53 0cbe
000000c0: ed8f 3ebe ff12 6c3e ad79 923c c75f e73d
000000d0: 94f6 393d b6f7 313e 6ca8 223e 1341 d43d
000000e0: bc90 53be 4141 d33d beb9 79bc 8875 7cbe
000000f0: f871 e7bd d495 9dbd c6da 083e 1c0d 73bd

bn4.running_mean f4 [64]
0.44779027 1.2044857 0.31755528 0.42902994 0.6812811 0.4940183 0.82414263 0.5768409
0.76482946 0.26302344 0.83717597 0.6990253 0.5956199 0.8335732 0.33317953 0.347983
0.3405008 0.36860138 0.3137715 0.34748265 0.5199032 0.36785844 0.3123411 0.6815157
0.24776863 0.32900754 0.22236812 0.29409114 0.54311115 1.0980417 0.2668795 0.7619362
0.34525266 0.63814235 1.0462167 0.41409245 0.37159118 0.6133799 0.34369648 0.59367144
0.59005165 0.59458685 0.521852 0.32580742 0.37244287 0.47752285 0.28039205 0.44720727
0.4493802 0.45570785 0.33269244 0.763081 0.5092236 0.57594794 0.5903748 0.38633126
0.5266825 0.5026428 0.3558181 0.3188525 0.35147914 0.53879315 0.46339858 0.85397077
00000000: c444 e53e 962c 9a3f 9b96 a23e d0a9 db3e
00000010: 7068 2e3f f7ef fc3e 03fb 523f d8ab 133f
00000020: ddcb 433f 02ab 863e 2a51 563f 52f3 323f
00000030: 8c7a 183f 0e65 553f 8296 aa3e d42a b23e
00000040: 1f56 ae3e 52b9 bc3e a8a6 a03e 3fe9 b13e
00000050: 6018 053f f157 bc3e 2ceb 9f3e d077 2e3f
00000060: 0fb7 7d3e ad73 a83e 78b4 633e 1d93 963e
00000070: 5509 0b3f a18c 8c3f 6ea4 883e 400e 433f
00000080: f5c4 b03e 4c5d 233f 6eea 853f ed03 d43e
00000090: 3341 be3e 7706 1d3f fcf8 af3e dafa 173f
000000a0: a00d 173f d836 183f 1898 053f 3bd0 a63e
000000b0: d5b0 be3e e07d f43e 8c8f 8f3e 5af8 e43e
000000c0: 2915 e63e 8a52 e93e aa56 aa3e 4759 433f
000000d0: 7a5c 023f 5371 133f ce22 173f 36cd c53e
000000e0: aad4 063f 33ad 003f ca2d b63e a340 a33e
000000f0: 13f5 b33e 59ee 093f 9442 ed3e d49d 5a3f

bn4.running_var f4 [64]
0.7128536 2.0194483 0.5321578 0.758977 1.2371976 0.7385162 1.5731796 1.1580825
1.2760617 0.43543604 1.3290417 1.0838923 0.960101 1.5112466 0.48887417 0.48637742
0.50964093 0.8656747 0.44058532 0.5924277 0.70709306 0.94060093 0.43312392 1.2049999
0.3889972 0.5652643 0.34756008 0.36469677 0.9014173 1.7994251 0.39425734 1.1532882
0.54157835 0.89029706 2.2317455 0.84313434 0.6995663 1.0478338 0.5364002 0.88714963
1.1157663 1.0453726 1.1802016 0.40188316 0.5858184 0.89711213 0.5193539 0.995601
0.7751668 0.5511216 0.58901495 1.240208 0.69966835 1.0516 0.87701315 0.56171113
0.856451 0.6120894 0.55874914 0.72315174 0.6198906 0.9974525 0.78676003 1.5012605
00000000: 937d 363f a43e 0140 7e3b 083f 514c 423f
00000010: 7e5c 9e3f 660f 3d3f f35d c93f 0c3c 943f
00000020: fd55 a33f 79f1 de3e 0a1e aa3f fcbc 8a3f
00000030: 2ec9 753f 8770 c13f b74d fa3e 7606 f93e
00000040: d477 023f db9c 5d3f 6694 e13e 57a9 173f
00000050: 0d04 353f 39cb 703f 6bc2 dd3e 703d 9a3f
00000060: a42a c73e 29b5 103f 65f3 b13e 89b9 ba3e
00000070: 49c3 663f 9053 e63f 19dc c93e f39e 933f
00000080: e1a4 0a3f 82ea 633f ebd4 0e40 a7d7 573f
00000090: c716 333f 6b1f 863f 8651 093f 3d1c 633f
000000a0: 6ed1 8e3f c5ce 853f d910 973f a1c3 cd3e
000000b0: 32f8 153f 24a9 653f 61f4 043f b5df 7e3f
000000c0: 5571 463f 4e16 0d3f afc9 163f 23bf 9e3f
000000d0: 771d 333f d49a 863f ef83 603f 4dcc 0f3f
000000e0: 5f40 5b3f e4b1 1c3f 2f0a 0f3f 7920 393f
000000f0: 26b1 1e3f 0c59 7f3f 1b69 493f 4e29 c03f

lin.weight f4 [10, 64]
0.11075905 -0.10872848 -0.12865911 0.10583086 0.20594972 -0.0454235 -0.22183634 -0.079080045
-0.16119586 -0.11683051 -0.16687594 -0.1982545 -0.019120589 0.13560826 -0.3826606 0.12113974
-0.27823737 0.0663388 0.11848946 -0.2452462 0.058969382 0.12709115 0.3930112 -0.18832321
-0.34872457 0.13673851 0.23992813 0.30552858 -0.11748469 0.13120712 0.46534863 0.25862154
0.28747654 0.17211989 0.1022401 -0.08800247 0.24576387 0.079150505 -0.02873895 0.09193053
0.1081885 0.02076041 -0.04850634 -0.2993768 0.07192633 0.19761157 -0.34310687 -0.2874764
-0.14015628 0.2661886 0.29786658 -0.025956297 0.25487345 0.118599765 -0.1232686 -0.31255192
-0.19140846 0.14328064 0.17059779 -0.003591431 -0.24283905 -0.2738365 0.20075732 -0.121096075
0.14932975 0.103124656 0.32085547 0.29920247 -0.35760376 -0.27337882 0.23702317 -0.28245884
-0.18474716 -0.4112957 0.08385937 0.040274426 -0.15858413 -0.0857328 -0.42562237 0.11486133
0.082238 0.26018474 -0.043802418 0.23925899 0.069448285 -0.15760013 -0.081482716 -0.16959019
-0.15374884 -0.050557546 0.22240295 -0.11499595 0.0374398 -0.28287172 0.06985187 -0.15353352
0.1071252 -0.2514745 0.13230307 0.145144 -0.09618187 -0.15711631 0.007393534 -0.34819576
-0.1820577 0.056828834 -0.24131168 0.02582984 -0.05850934 -0.33534727 0.31928492 0.1930557
-0.044728436 -0.33794737 0.14770962 -0.1947756 0.21503602 -0.3813594 -0.2914595 -0.23254788
0.08642106 -0.27254984 -0.19887376 0.423741 -0.037388556 0.3340162 -0.2747608 0.1917755
-0.33563918 -0.085890725 -0.17402108 -0.023897797 -0.09921556 0.11840794 -0.059617907 -0.24919337
0.22548844 -0.0923498 0.078527845 -0.13326202 -0.18261974 -0.2676086 0.2047062 0.2399642
0.16089651 -0.0037162448 -0.17316256 -0.17478526 -0.2712304 -0.15787752 -0.16056249 -0.09942715
0.089309186 -0.24811165 -0.070245646 0.044326197 -0.27077407 0.22950077 -0.30969134 -0.23116118
-0.2470963 -0.21248853 -0.1423177 -0.36774167 -0.10244465 0.090442196 0.12657255 0.011251481
-0.302005 0.16810027 -0.2838404 0.065634675 -0.093023084 -0.26595494 -0.13020705 -0.12417018
-0.29178238 0.043098852 0.16136485 -0.09592065 0.29576126 -0.15222579 0.24477686 0.014364407
-0.047732163 0.28584024 0.13084252 -0.3759678 -0.18703668 -0.11636626 -0.024821369 0.024678474
-0.14677949 -0.22778513 0.063203655 -0.2763188 0.27282766 0.12158259 0.09890914 -0.13879095
0.3333225 0.011895887 -0.098828 0.14716305 0.05044902 -0.044185974 0.27398637 -0.12947363
0.041217066 -0.3750836 -0.023091815 0.057882067 -0.19680034 -0.27611783 0.08177061 -0.15319179
-0.09579035 -0.015036309 -0.11872161 -0.18512309 0.16074812 0.050099775 -0.0157178 -0.15586868
0.006534324 -0.011363407 -0.20099486 -0.14545307 -0.17746162 -0.20677243 -0.23049258 -0.33392692
-0.29342425 0.03448826 -0.18504035 -0.21850048 0.2190786 0.02938516 0.38978723 0.29737982
-0.014634713 0.114306636 -0.092947386 0.06333855 0.06279204 -0.27911037 -0.004641791 -0.12957607
0.07422678 0.12412995 -0.16711228 -0.36565778 -0.1986531 0.20811297 0.2898076 0.1875853
00000000: a4d5 e23d 0aad debd 37bf 03be dabd d83d
00000010: 7ce4 523e fe0d 3abd 1129 63be b8f4 a1bd
00000020: 8710 25be d644 efbd 87e1 2abe 3a03 4bbe
00000030: c8a2 9cbc e4dc 0a3e 17ec c3be 1d18 f83d
00000040: 2175 8ebe a3dc 873d 9aaa f23d d221 7bbe
00000050: e189 713d 2f24 023e c438 c93e cdd7 40be
00000060: 078c b2be 2e05 0c3e b8af 753e 3e6e 9c3e
00000070: d09b f0bd 295b 063e 2d42 ee3e 0b6a 843e
00000080: 2030 933e 3240 303e 4263 d13d a43a b4bd
00000090: 86a9 7b3e a919 a23d f26d ebbc 1346 bc3d
000000a0: ef91 dd3d bc11 aa3c 95ae 46bd ea47 99be
000000b0: 1d4e 933d b05a 4a3e b4ab afbe 1b30 93be
000000c0: 2185 0fbe df49 883e f881 983e 4da2 d4bc
000000d0: c67e 823e 6fe4 f23d 3f74 fcbd ce06 a0be
000000e0: 9400 44be 29b8 123e 30b1 2e3e 375e 6bbb
000000f0: cdaa 78be 4c34 8cbe 5493 4d3e 3801 f8bd
00000100: e6e9 183e 0533 d33d 2b47 a43e 1131 993e
00000110: d717 b7be 4ff8 8bbe 34b6 723e 729e 90be
00000120: 5c2e 3dbe 5a95 d2be 76be ab3d ccf6 243d
00000130: e163 22be ae94 afbd 2deb d9be 6b3c eb3d
00000140: 666c a83d ef36 853e 2a6a 33bd 4f00 753e
00000150: e73a 8e3d ee61 21be 69e0 a6bd 0da9 2dbe
00000160: 5670 1dbe 6e15 4fbd 99bd 633e ff82 ebbd
00000170: 7a5a 193d 90d4 90be 7f0e 8f3d e437 1dbe
00000180: 7564 db3d 44c1 80be 757a 073e a1a0 143e
00000190: 00fb c4bd 19e3 20be 7545 f23b b746 b2be
000001a0: 556d 3abe 5ac5 683d 691a 77be 1a99 d33c
000001b0: 7da7 6fbd a3b2 abbe 5079 a33e 65b0 453e
000001c0: 2a35 37bd 7007 adbe 3141 173e 4173 47be
000001d0: 6732 5c3e 8a41 c3be 2e3a 95be 0821 6ebe
000001e0: 86fd b03d a78b 8bbe 90a5 4bbe 95f4 d83e
000001f0: be24 19bd 2c04 ab3e 73ad 8cbe cc60 443e
00000200: e6d8 abbe 7ae7 afbd 9532 32be 50c5 c3bc
00000210: 8731 cbbd dd7f f23d e831 74bd 8c2c 7fbe
00000220: 71e6 663e e421 bdbd 35d3 a03d d775 08be
00000230: ab00 3bbe ff03 89be 819e 513e 2db9 753e
00000240: 0ec2 243e 3e8c 73bb 8751 31be e8fa 32be
00000250: b6de 8abe a5aa 21be 7e6a 24be 76a0 cbbd
00000260: bce7 b63d fb10 7ebe f3dc 8fbd 638f 353d
00000270: e6a2 8abe 4002 6b3e dd8f 9ebe 84b5 6cbe
00000280: d006 7dbe 9896 59be bbbb 11be a348 bcbe
00000290: 80ce d1bd c239 b93d 3c9c 013e 2258 383c
000002a0: 66a0 9abe 7a22 2c3e 8753 91be 796b 863d
000002b0: e382 bebd 3f2b 88be ff54 05be ef4c febd
000002c0: 8064 95be 6c88 303d d43c 253e 0c72 c4bd
000002d0: 056e 973e 14e1 1bbe c9a6 7a3e b158 6b3c
000002e0: cd82 43bd a759 923e 95fb 053e da7e c0be
000002f0: 8b86 3fbe 6f51 eebd 2f56 cbbc 832a ca3c
00000300: 5d4d 16be 8140 69be eb70 813d a879 8dbe
00000310: 11b0 8b3e 4b00 f93d e090 ca3d 371f 0ebe
00000320: 3fa9 aa3e f7e6 423c 5666 cabd e9b1 163e
00000330: a2a3 4e3d 5afc 34bd f147 8c3e bc94 04be
00000340: 3ad3 283d f50a c0be 0c2b bdbc bf15 6d3d
00000350: 0786 49be 515f 8dbe 5977 a73d 4fde 1cbe
00000360: bb2d c4bd da5a 76bc 5124 f3bd e890 3dbe
00000370: 289b 243e 6c35 4d3d 9ec2 80bc 0a9c 1fbe
00000380: e21d d63b 952d 3abc 99d1 4dbe a6f1 14be
00000390: 80b8 35be 27bc 53be 3f06 6cbe 78f8 aabe
000003a0: b43b 96be 9043 0d3d 387b 3dbe 97be 5fbe
000003b0: 2456 603e 26b9 f03c 3192 c73e 2b42 983e
000003c0: 6fc6 6fbc 9919 ea3d 335b bebd a4b7 813d
000003d0: 1d99 803d 8ee7 8ebe 2a1a 98bb 97af 04be
000003e0: 3604 983d d837 fe3d 7b1f 2bbe 7f37 bbbe
000003f0: b86b 4bbe 911b 553e a961 943e 5c16 403e

lin.bias f4 [10]
0.0063554402 -0.25611562 0.08499287 -0.021251408 0.12359107 -0.055225413 -0.30668893 0.06252928
0.04495024 0.050882418
00000000: 4c41 d03b 9621 83be be10 ae3d 6f17 aebc
00000010: 511d fd3d 0b34 62bd 5506 9dbe 5a0f 803d
00000020: be1d 383d 156a 503d
